model/ckpt/final_epoch_700.model (torch_old, 737289 bytes, 16 tensors)

fc1.weight f4 [256, 195]
0	0xbd6180bb	-0.055054408
1	0xbd6c2b3a	-0.05765841
2	0x3d46c13c	0.048524126
3	0xbd09d597	-0.03365096
4	0xbb0fecc1	-0.0021961185
5	0x3d5be00a	0.053680457
6	0xbd7b46d5	-0.061346848
7	0x3dc3b177	0.09555333
8	0xbcbf085f	-0.023319421
9	0xbda07740	-0.07835245
10	0x3c8028ff	0.015644548
11	0xbd9881a3	-0.07446601
12	0xbd7aaed9	-0.061201904
13	0xbc3ab71e	-0.011396198
14	0xbd9e58d5	-0.07731787
15	0x3d15c62e	0.036565952
16	0xbc30fb97	-0.010802171
17	0x3d9b7ca3	0.07592132
18	0xbdc3465f	-0.095349066
19	0xbd5e576d	-0.054282594
20	0x3d38dda8	0.045133263
21	0x3d878f9f	0.066191904
22	0xbb6d2990	-0.0036188103
23	0x3c97361a	0.018458415
24	0x3d7ebb3c	0.06219028
25	0xbd11da28	-0.03560844
26	0x3d9d0659	0.07667226
27	0x3d5c2dfa	0.053754784
28	0x3c19f7f1	0.009397493
29	0x3c858f1e	0.016303595
30	0xbd768119	-0.06018171
31	0xbcd3a767	-0.02583666
32	0x3c6f604c	0.014610361
33	0xbd86c829	-0.06581146
34	0x3d5542ee	0.052065782
35	0x3d86f0b4	0.06588879
36	0xbdd7d74f	-0.10539114
37	0xbc4fbaf7	-0.012678853
38	0xbdbd1c3f	-0.09233903
39	0x3d75427e	0.059877865
40	0xbe2de4f7	-0.16981874
41	0x3db5824f	0.08862745
42	0x3b452baa	0.003008584
43	0x3d855adf	0.06511473
44	0xbd831a95	-0.064015545
45	0xbd1f9a15	-0.038965303
46	0x3dbf9aed	0.093557216
47	0xbd209d13	-0.039212298
48	0xbd8832b8	-0.06650299
49	0xba85eebe	-0.0010218245
50	0xbd80fe5c	-0.06298515
51	0x3c9ca45c	0.019121341
52	0x3b2db3a8	0.0026504789
53	0x3cb11c86	0.021620046
54	0x3d3b44ff	0.045720097
55	0xbc160186	-0.009155637
56	0x3cb93fc3	0.022613412
57	0xbe50dee9	-0.20397533
58	0x3e0aefaa	0.13567987
59	0x3d6cb989	0.057794128
60	0xbe2347ac	-0.1594531
61	0xba8064dd	-0.0009795685
62	0xbc568131	-0.013092325
63	0x3d94ebd7	0.072715454
64	0x3d7b08c1	0.061287645
65	0x3d97267f	0.073803894
66	0xbd9590c5	-0.07303003
67	0x3c9dd56d	0.019266808
68	0x3c8b7862	0.017025176
69	0x3d98da98	0.074635684
70	0x3dcb497b	0.09926125
71	0x3d6a8c09	0.057262454
72	0xbdd60f87	-0.1045218
73	0x3d0e0019	0.034668062
74	0xbc20b678	-0.009809129
75	0xbc9148f6	-0.017734986
76	0xbc1f3b4f	-0.00971873
77	0xbddb5411	-0.10709394
78	0x3d16674f	0.036719617
79	0x3d81aa5a	0.0633132
80	0x3c52fb4b	0.012877296
81	0x3c71792a	0.01473836
82	0x3e11818a	0.14209571
83	0xbc34edbb	-0.0110430075
84	0x3d03cc1a	0.03217707
85	0x3d009e81	0.03140116
86	0x3d094936	0.033517085
87	0xbdd616bf	-0.10453557
88	0x3d204d1d	0.03913604
89	0xbd80edc4	-0.0629535
90	0x3d00b8c6	0.031426214
91	0x3c9718ee	0.018444505
92	0xbd87630d	-0.06610689
93	0x3d2a7409	0.041614566
94	0xbd30043b	-0.042972784
95	0x3d34c125	0.04412951
96	0xbe15664a	-0.14589801
97	0xbc18e449	-0.009331771
98	0x3c08d5fe	0.008351801
99	0xbda7960e	-0.081829175
100	0xbccd1c4b	-0.025037905
101	0xbd189278	-0.03724906
102	0x3d1d214e	0.03836184
103	0x3cb06db3	0.021536684
104	0x3d0ed516	0.034871183
105	0xbd43c412	-0.04779441
106	0x3cb5e21b	0.022202542
107	0x3a2694f6	0.00063545944
108	0xbd1e4bf1	-0.038646642
109	0xbdf06ea3	-0.11739852
110	0xbe0eafeb	-0.13934295
111	0xbc1266ca	-0.00893564
112	0x3d352872	0.044228025
113	0x3d8647d3	0.06556668
114	0x3ba19998	0.00493164
115	0xbddb4ecb	-0.10708388
116	0xbcfaa2b9	-0.03059517
117	0xbd1a4fb8	-0.037673682
118	0xbcade8cf	-0.021229176
119	0x3dce1eb1	0.10064448
120	0x3c9aa978	0.018879637
121	0xbde876ea	-0.11350806
122	0x3d9bdf74	0.0761098
123	0xbdc0b65a	-0.09409781
124	0x3de01edd	0.10943387
125	0xbc5d027e	-0.013489364
126	0xbe55c9e4	-0.20877796
127	0x3d437da1	0.04772723
128	0xbdc22e4d	-0.094814874
129	0x3c8d3b37	0.01724015
130	0xbab2d04d	-0.0013642401
131	0x3c7ea41a	0.015542055
132	0xbc31f5ac	-0.010861795
133	0x3e1dc490	0.15407014
134	0x3c19c338	0.009384923
135	0xbcdf6d16	-0.027273696
136	0x3c713520	0.014722139
137	0x3cd217e3	0.025646156
138	0x3ca66f08	0.020316616
139	0x3dc1af46	0.09457259
140	0xbd8f92c9	-0.07010419
141	0xbd0a6e61	-0.03379667
142	0xbcebee68	-0.028800204
143	0xbd3a0a75	-0.04542013
144	0xbcf20ac5	-0.029546151
145	0x3c163894	0.009168763
146	0xbbb4543f	-0.005503207
147	0x3de76456	0.112984344
148	0x3d1d14b5	0.038349826
149	0xbbf244fa	-0.0073934766
150	0xbd1703d2	-0.036868878
151	0x3e10d685	0.14144333
152	0xbb14feb2	-0.0022734818
153	0xbe730497	-0.2373222
154	0xbdad70ec	-0.08468804
155	0xbe064819	-0.1311344
156	0xbc83a6ba	-0.016070712
157	0xbd8372e7	-0.064184
158	0x3d8e5a6a	0.06950839
159	0xbd244e1c	-0.040113553
160	0xbdaea916	-0.08528344
161	0xbd964d5f	-0.07338976
162	0x3c75f607	0.015012271
163	0x3df93ba7	0.12169581
164	0xbd9950a4	-0.07486084
165	0xbda720f6	-0.08160584
166	0xbd750bf8	-0.059825867
167	0x3d843e47	0.06457191
168	0x3d68c2bd	0.056826342
169	0xbc1e7112	-0.009670513
170	0xbe33aa2e	-0.17545387
171	0xbc6a278c	-0.014291655
172	0x3ddc4ace	0.10756455
173	0xbd27d90a	-0.04097847
174	0xbdfb2463	-0.122627996
175	0x3e30db91	0.17271258
176	0x3e65e0bb	0.22449009
177	0xbe15c889	-0.1462728
178	0x3d8ff2cf	0.07028734
179	0xbb88b25d	-0.004171653
180	0x3d22a57a	0.039708592
181	0x3cdc01b4	0.02685628
182	0xbd9213b6	-0.07132666
183	0xbdc9f84a	-0.098618105
184	0x3d976286	0.07391839
185	0x3cd773e6	0.026300382
186	0xbba71694	-0.005099127
187	0xbe426ba9	-0.18986382
188	0x3ddedbb0	0.10881746
189	0xbd49766a	-0.049185194
190	0x3e53fdda	0.20702305
191	0xbb833356	-0.0040039225
192	0xbddf1551	-0.10892738
193	0x3d33ebca	0.043926038
194	0xbde9ac9c	-0.11409876
195	0x3c1afb87	0.009459383
196	0xbc0b0941	-0.008486093
197	0xbca33573	-0.019922948
198	0xbda0a2b7	-0.078435354
199	0xbd8973b4	-0.06711522
200	0xbdb09f66	-0.08624153
201	0xbc541491	-0.012944357
202	0x3ce7dde1	0.028304042
203	0x3d59fb77	0.05321833
204	0x3d378bcd	0.04481106
205	0xbd976498	-0.073922336
206	0x3dc72eaa	0.09725697
207	0x3ce65b77	0.028119786
208	0xbd2d234c	-0.04226999
209	0x3dab733f	0.08371591
210	0xbcc37dda	-0.023863722
211	0xbe022d51	-0.127126
212	0x3e061ea7	0.1309763
213	0xbda034f4	-0.078226
214	0x3c9bc41d	0.019014413
215	0x3b3cc97e	0.0028806622
216	0xbbd672b2	-0.0065444345
217	0xbc08d5c5	-0.008351748
218	0x3cfca029	0.030838089
219	0xbcc4a019	-0.024002122
220	0x3cf5fa99	0.03002672
221	0x3e0c8116	0.13721117
222	0xbd9e1460	-0.0771873
223	0xbda2665e	-0.07929681
224	0x3d4fe89e	0.05075895
225	0x3dc20a4b	0.094746195
226	0x3df6abfb	0.120445214
227	0x3d3a6c80	0.04551363
228	0xbca04459	-0.01956384
229	0xbe0111ae	-0.126044
230	0x3b049e12	0.0020235819
231	0x3ddd8b87	0.10817628
232	0xbc575a77	-0.013144127
233	0xbd08a6dc	-0.033362255
234	0x3d54803f	0.051880118
235	0xbd0e053e	-0.034672968
236	0xbd923579	-0.07139105
237	0xbd03d198	-0.032182306
238	0x3d6c958e	0.057759814
239	0xbd61cdd3	-0.05512793
240	0x3d88a301	0.066717155
241	0x3d582937	0.05277368
242	0x3c922dc5	0.01784409
243	0x3d87a185	0.06622604
244	0xbc3affdb	-0.01141354
245	0x3df1bba8	0.11803371
246	0xbcd8e926	-0.026478361
247	0x3c1f979f	0.009740739
248	0x3dd04ad1	0.1017052
249	0xbbaa0447	-0.005188498
250	0xbe2c9b38	-0.16856086
251	0xbd32a14c	-0.043610856
252	0x3da8a3c6	0.08234362
253	0x3d74ba7d	0.05974816
254	0x3b056f27	0.0020360441
255	0x3cb71744	0.022349961

fc1.bias f4 [256]
0	0x3c817b7a	0.015805949
1	0xbc13ea17	-0.009027979
2	0x3b7532d3	0.0037414327
3	0x3be6f91d	0.0070487396
4	0xbc4f4e37	-0.012652925
5	0x3cd320ee	0.025772538
6	0x3c00c11f	0.007858544
7	0xbc56b718	-0.013105176
8	0xbbe47a14	-0.0069725607
9	0x3bce5431	0.0062966575
10	0xbcc87242	-0.024468545
11	0x3b061a76	0.002046255
12	0xbc9762d8	-0.01847975
13	0x3c08879a	0.008333111
14	0x3a84d9eb	0.0010135745
15	0x3c0ca6f9	0.008584731
16	0xbb21658e	-0.0024627182
17	0xbc87d677	-0.016581757
18	0xbcaf3aa9	-0.021390276
19	0xbc12b016	-0.008953115
20	0x3b9cc113	0.0047837584
21	0x3c849edf	0.016189037
22	0xbbba7be0	-0.0056910366
23	0x3b34d023	0.002758988
24	0x3cc1c97a	0.023655642
25	0x3b37c1ab	0.002803902
26	0xbb816344	-0.003948601
27	0xbbac046e	-0.0052495515
28	0xbc837121	-0.016045155
29	0xbb10878f	-0.0022053455
30	0xbc8e4fd7	-0.017372055
31	0x3a8b41b2	0.0010624437
32	0x3b823904	0.003974082
33	0xbc24aa08	-0.010050304
34	0xbc159816	-0.009130498
35	0x3c5df2bf	0.013546645
36	0x3b30994e	0.0026946845
37	0x3c6833f8	0.014172547
38	0xbaef6e24	-0.0018267077
39	0xbb9bee57	-0.004758637
40	0x3c74ee1e	0.01494935
41	0x3cb1f704	0.021724232
42	0xbb10ccf6	-0.0022094822
43	0x3c7a3705	0.015271907
44	0x3a8680cf	0.0010261777
45	0x3cba3d55	0.022734324
46	0x3d014fc3	0.031570207
47	0x3cdf73a7	0.027276827
48	0xbb029c29	-0.0019929504
49	0xbb9b0866	-0.004731226
50	0x3cd9ad70	0.02657196
51	0xbcaccacd	-0.021092797
52	0xbb961583	-0.004580201
53	0x3c69f61d	0.014279869
54	0x3c7a289c	0.015268471
55	0x3c523ae9	0.012831428
56	0xbb98575e	-0.004649087
57	0xbba99d3b	-0.005176214
58	0x3ba64c3a	0.005075005
59	0xbc866a7c	-0.016408198
60	0xbcb1e137	-0.021713836
61	0x3b565790	0.0032706
62	0xbc1adee9	-0.00945256
63	0x3bddf176	0.006773169
64	0xbcdff659	-0.027339147
65	0xbaeab219	-0.001790586
66	0x3c7e6711	0.015527503
67	0x3c4685a5	0.012116824
68	0xbca54fdb	-0.02017968
69	0xbc57c8cf	-0.013170435
70	0x3c09fb14	0.008421678
71	0x3c4d785f	0.012540906
72	0xbbebf1d9	-0.0072004613
73	0xbb19e807	-0.0023484246
74	0xbbfc3c9e	-0.007697656
75	0xbbe653cc	-0.0070290323
76	0xbc9ad234	-0.01889906
77	0xbc099608	-0.008397587
78	0xbc412e24	-0.011790786
79	0xbbb994c4	-0.005663486
80	0x3cc71e3e	0.024306413
81	0x3c84e4bc	0.01622235
82	0x3bb1fb8e	0.005431599
83	0xbc1f08b5	-0.009706666
84	0xbb8ff662	-0.004393385
85	0x3c5acda2	0.013354691
86	0xbbad65d9	-0.005291682
87	0x3c1c2dd3	0.00953241
88	0x3ca6ed4a	0.02037682
89	0xbb9b4b53	-0.004739204
90	0xb84a0679	-4.816658e-05
91	0xbc8c8dc6	-0.017157447
92	0xbc1c53e2	-0.009541484
93	0x3c1c53a4	0.009541426
94	0x3ca4c2a7	0.020112349
95	0x3c211b99	0.00983324
96	0xbc458db4	-0.01205771
97	0x3b18e6df	0.002333097
98	0x3c8bb35d	0.0170533
99	0xbbb7c500	-0.005608201
100	0xbc960455	-0.018312613
101	0xbce72dce	-0.028220084
102	0xba0e88d3	-0.00054372585
103	0x3ce6844f	0.028139262
104	0x3bc5f299	0.006040883
105	0xbce586a8	-0.02801831
106	0x3c1857a7	0.009298242
107	0xbcafc60d	-0.021456743
108	0xbb85d91f	-0.0040847207
109	0xbc4270c1	-0.011867703
110	0x3b362a1a	0.002779609
111	0x3a90c77d	0.001104578
112	0x3b804e89	0.003915612
113	0xbc955b0a	-0.018231887
114	0x3a08ab96	0.00052135566
115	0xb9f1dbdc	-0.0004613091
116	0x3c4fc8e9	0.012682178
117	0xbba7eca4	-0.0051246453
118	0x3bcea173	0.0063058673
119	0x3ca2f0b8	0.019890174
120	0xbc61ed7f	-0.013789534
121	0xbbe9b18f	-0.0071317623
122	0xbb827fa7	-0.0039825025
123	0xbbec098b	-0.007203286
124	0xbca53915	-0.02016882
125	0x3b1891d9	0.0023280291
126	0xbcb1278a	-0.021625299
127	0x3b447194	0.0029974924
128	0xbc51d5df	-0.0128073385
129	0xbc32e23e	-0.010918198
130	0xbcdd92c3	-0.02704752
131	0x3c963e5f	0.018340288
132	0x3bfbf18b	0.0076887063
133	0xbaed8be3	-0.0018123355
134	0xbbccf9f3	-0.006255382
135	0xbbaa5bc8	-0.0051989295
136	0x3cd5e27b	0.02610897
137	0x3c0a841c	0.008454349
138	0xba810182	-0.0009842368
139	0x3b67a282	0.0035344665
140	0xbbe7d26d	-0.0070746453
141	0xbc177fe6	-0.009246802
142	0x3c83cf35	0.016090015
143	0xbc752439	-0.014962249
144	0x3bc31b4a	0.005954181
145	0x3aeaee20	0.001792375
146	0x3c58a41a	0.013222719
147	0xbc009f50	-0.007850483
148	0x3c3ac782	0.011400105
149	0x3ce1ad0a	0.027548332
150	0x3c8c5d31	0.01713428
151	0xbb89334c	-0.0041870233
152	0x3c02abf8	0.007975571
153	0x3bceff1e	0.0063170334
154	0xbcc188d1	-0.02362481
155	0x3a7bb293	0.00096015
156	0x3bbf5e50	0.0058401003
157	0xbcabf39a	-0.020990182
158	0x3c80864e	0.015689041
159	0xba49be71	-0.00076959195
160	0x3cca28a2	0.024677578
161	0xbcde47d2	-0.027133856
162	0x3c9ebcb8	0.019377097
163	0x3b894369	0.004188944
164	0x38b5a80c	8.662054e-05
165	0xbcb15d1b	-0.021650841
166	0xbba79289	-0.005113904
167	0x3c8287dd	0.015933925
168	0x3ae045ab	0.0017110606
169	0x3c4133bb	0.011792119
170	0x3b6a3776	0.0035738624
171	0x3b942758	0.0045212917
172	0x3c52e3ed	0.012871725
173	0xbc430628	-0.011903323
174	0xbc3dbd89	-0.011580833
175	0x3bb9bb9d	0.005668117
176	0xbc3683de	-0.011139838
177	0xbc346450	-0.0110102445
178	0x3bb40462	0.0054936865
179	0x3c5fb0b2	0.013652967
180	0x3c6294a3	0.013829383
181	0xbcbfcae5	-0.023412177
182	0x3c8bf874	0.017086245
183	0xbcac50d0	-0.021034628
184	0x3cdfa29d	0.02729922
185	0x3a2b8fa7	0.0006544538
186	0x3c8a7106	0.016899597
187	0x3af61cb6	0.0018776867
188	0xbbc41fe6	-0.005985248
189	0xbb2a4367	-0.0025980116
190	0x3bbcfde4	0.005767571
191	0x3ccf6c2c	0.025320135
192	0x3c937bfe	0.01800346
193	0xbbee1507	-0.0072656902
194	0x3b24c70b	0.0025143053
195	0x3bf8a2e3	0.007587777
196	0x3c898de7	0.016791297
197	0x3c1e088e	0.009645594
198	0x3ba02019	0.004886639
199	0x3bd5b70d	0.0065220655
200	0xbc2bdc21	-0.010489495
201	0x3bd7dd48	0.006587658
202	0x3a1e68fe	0.0006042867
203	0xbca87ced	-0.020567382
204	0xbbe4a1b4	-0.0069772843
205	0x3b77ab63	0.0037791363
206	0xbc28f94e	-0.010313345
207	0x3c53f997	0.012937925
208	0x3c1933ba	0.0093507115
209	0xbcdbb2fc	-0.026818745
210	0xbc05abc0	-0.008158624
211	0xbca08642	-0.01959527
212	0xbae76bdd	-0.0017656047
213	0xbb0fbf39	-0.0021934046
214	0x3b9069c2	0.0044071386
215	0xbca3d31e	-0.01999813
216	0xbc142869	-0.009042838
217	0xbc50889f	-0.0127278855
218	0x3c2b08bd	0.010439095
219	0xbc422611	-0.011849896
220	0xbc975fc2	-0.018478278
221	0x3be3bccc	0.0069499966
222	0x3a9b7943	0.00118617
223	0xbb4f37db	-0.0031618986
224	0xbc224c4c	-0.009905886
225	0xbb560a7a	-0.0032660053
226	0x3ba39fb3	0.004993403
227	0xbc5e199a	-0.013555909
228	0x3c9ee5c2	0.019396666
229	0xbc14cebf	-0.009082495
230	0xbbee8672	-0.0072792107
231	0x3cb6d2e7	0.022317363
232	0x3c08806c	0.008331399
233	0xba8dd74a	-0.0010821607
234	0x3c8b4e99	0.017005252
235	0xbafc7033	-0.0019259512
236	0xbc9c804f	-0.019104151
237	0xbb43ab16	-0.0029856614
238	0x3b652ac6	0.0034968122
239	0xbc1494f8	-0.00906872
240	0x3c2d658b	0.010583292
241	0xbbcbefb8	-0.006223645
242	0xbbd49d49	-0.0064884764
243	0xbc006688	-0.007836945
244	0xbbbb85d5	-0.005722741
245	0x3c643088	0.013927586
246	0xbc01f255	-0.007931312
247	0x3cc77471	0.024347516
248	0xbb35c3dd	-0.0027735152
249	0x3c75eba5	0.015009795
250	0xbb985b6d	-0.0046495707
251	0x3cb8e79e	0.022571381
252	0xb915dd6d	-0.00014292235
253	0x3c2b4f89	0.010455974
254	0x3c905284	0.017617472
255	0x3be49296	0.006975482

fc2.weight f4 [256, 256]
0	0xbbf0c3a6	-0.007347542
1	0x3dbf7ad2	0.09349598
2	0x3da9a5cf	0.082835786
3	0xbd5bad35	-0.05363198
4	0xbc4ba032	-0.01242833
5	0xbe0e1c40	-0.13877964
6	0xbd692744	-0.056922212
7	0xbc200b9c	-0.009768393
8	0x3c8602f8	0.016358837
9	0xbcf318f2	-0.02967498
10	0xbdee50d3	-0.1163651
11	0x3cbbb21d	0.02291208
12	0x3ce84e95	0.028357783
13	0xbe2ac1d2	-0.16675499
14	0xbdb5872d	-0.08863673
15	0x3cefe9c0	0.029286265
16	0xbbf35a36	-0.0074265255
17	0x3c7234d0	0.014783099
18	0x3dcf037c	0.101080865
19	0xbcc12ebd	-0.023581857
20	0xbd62dcb3	-0.055386256
21	0x3d5df1f4	0.054185823
22	0x3daf5cdf	0.08562636
23	0xbcaa4f12	-0.020789657
24	0xbd8c766a	-0.06858523
25	0xbdb640d8	-0.08899087
26	0x3c8f84fd	0.017519468
27	0x3e0265aa	0.12734094
28	0xbc0a1552	-0.008427935
29	0x3d96dcce	0.07366334
30	0x3d02c793	0.03192861
31	0xbb76bb00	-0.0037648082
32	0xbe0a52ee	-0.13508198
33	0xbd7a267c	-0.061071858
34	0x3c8963a0	0.016771138
35	0xbdb958a2	-0.090501085
36	0xbd1d39e5	-0.03838529
37	0xbd82d719	-0.06388683
38	0xbc0b4e45	-0.008502548
39	0xbae0a7da	-0.0017139867
40	0x3e237060	0.15960836
41	0xbdac83fc	-0.084236115
42	0xbdc0c85e	-0.09413217
43	0x3e1946ce	0.14968416
44	0xbd78ad3a	-0.060712077
45	0x3cdfac4d	0.02730384
46	0x3d7c9eec	0.061674997
47	0xbc899aaf	-0.016797392
48	0xbdc3870a	-0.09547241
49	0xbcb3c94f	-0.021946577
50	0xbd8e0d2b	-0.06936105
51	0xbe455780	-0.1927166
52	0x3d060d0b	0.032727282
53	0x3ce699a3	0.028149432
54	0xbdcab2d6	-0.098973915
55	0x3daac128	0.08337623
56	0x3d2c48d4	0.04206164
57	0xbdcf12d4	-0.10111013
58	0x3d00f269	0.03148118
59	0xbd27706a	-0.04087869
60	0x3d1908ad	0.03736179
61	0xbc200fce	-0.009769393
62	0x3c922cd3	0.01784364
63	0xbcd044cb	-0.025423428
64	0xbc9fa3f9	-0.019487368
65	0x3d2f5d60	0.04281366
66	0x3d758153	0.059937786
67	0xbc8c9340	-0.017160058
68	0xbb196dd6	-0.0023411415
69	0x3d870caf	0.06594216
70	0xbd5044a5	-0.050846715
71	0x3ca0deaa	0.019637424
72	0x3def3b30	0.11681211
73	0x3c5d2162	0.013496729
74	0x3cc0ff6d	0.023559297
75	0xbb749b2b	-0.0037323933
76	0xbd953c46	-0.07286887
77	0x3a3b59db	0.00071468734
78	0xbcde8cdb	-0.027166774
79	0x3db3006f	0.08740317
80	0xbc8b58a4	-0.01701004
81	0x3d3ddeed	0.046355177
82	0x3d839583	0.064250015
83	0xbb412e3f	-0.0029477028
84	0xbd5924ee	-0.053013735
85	0xbd5b7faa	-0.053588547
86	0xbd3c3683	-0.045950424
87	0xbd4b03dc	-0.049564227
88	0x3d94c57f	0.07264232
89	0xbd286545	-0.041112203
90	0x3d3a3adb	0.045466285
91	0x3d23e435	0.040012557
92	0xbde752f1	-0.11295117
93	0xbd815c73	-0.063164614
94	0x3ccd0195	0.025025168
95	0x3b9b51dc	0.004739983
96	0x3a44bd72	0.0007505036
97	0x3df043e6	0.117317006
98	0xbcc461cf	-0.02397242
99	0x3c8f746d	0.01751157
100	0xbc901546	-0.017588269
101	0x3bd3f8a6	0.00646885
102	0xbca2c888	-0.019871011
103	0xbc917b27	-0.017758919
104	0x3d5f3fe0	0.054504275
105	0x3d26b043	0.04069544
106	0xbdd735f4	-0.105083376
107	0x3d4de0f5	0.050263364
108	0x3d5d36e3	0.054007422
109	0x3d80d53b	0.062906705
110	0xbe1ce2e3	-0.15320925
111	0xbdc025ec	-0.09382233
112	0xbe109ae0	-0.1412158
113	0x3d831e08	0.064022124
114	0xbdad9b1e	-0.08476852
115	0x3cd99d5d	0.026564294
116	0xbce86b55	-0.028371492
117	0x3da8bc17	0.08239
118	0xbc9f4a62	-0.019444648
119	0xbcf819f1	-0.030285807
120	0xbcd0147b	-0.02540039
121	0x3def53b4	0.11685887
122	0xbd690306	-0.05688765
123	0x3c92ee15	0.017935792
124	0xbd36f6d4	-0.044668987
125	0xbd537b1b	-0.051631074
126	0xbb88ddb7	-0.004176821
127	0xbc8e5a8e	-0.017377164
128	0xbc5eb1d8	-0.013592206
129	0x3d90c1ec	0.07068238
130	0xbb90c0df	-0.0044175233
131	0xbad4e254	-0.0016241767
132	0x3e2052db	0.15656607
133	0xbd800196	-0.062503025
134	0xbe2678cf	-0.16257022
135	0xbcc80014	-0.0244141
136	0x3d1b6408	0.037937194
137	0xbcd34770	-0.0257909
138	0x3d738276	0.05945059
139	0x3d46126e	0.04835742
140	0xbce6cf33	-0.028174972
141	0xbd134f57	-0.035964336
142	0x3c951ecf	0.018203167
143	0xbe0683de	-0.13136241
144	0x3bfa0817	0.007630359
145	0xbca4b835	-0.020107368
146	0xbc5b2b5d	-0.013377038
147	0xbe2b2e9c	-0.16716999
148	0x3d0883ff	0.033329006
149	0x3d8233b3	0.06357517
150	0xbb524b78	-0.003208844
151	0xbd451cea	-0.048123278
152	0xbd99cbbd	-0.07509563
153	0xbacb7da8	-0.0015525119
154	0x3cdf4cb0	0.027258247
155	0xbd2a8bbd	-0.04163717
156	0xbd889b53	-0.06670251
157	0x3c91bc23	0.017789906
158	0xbd853e90	-0.065060735
159	0x3da9bf89	0.082884856
160	0x3b01f9e5	0.0019832787
161	0xbcae951c	-0.021311335
162	0x3d59e836	0.05319997
163	0x3d40e017	0.04708871
164	0xbcd01487	-0.025400413
165	0x3d22fe3c	0.039793238
166	0xbd81deeb	-0.06341346
167	0x3dde0357	0.10840481
168	0xbcadef08	-0.021232143
169	0x3a6595a0	0.00087579526
170	0xbd6cfd4a	-0.057858743
171	0x3cbbb551	0.022913607
172	0xbd01355b	-0.031545024
173	0xbca261e1	-0.019822063
174	0x3d6bcb5d	0.05756699
175	0x3c42b37c	0.011883613
176	0x3d95c55f	0.07313036
177	0xbc432ea9	-0.01191298
178	0xbca2ccc4	-0.01987303
179	0xbda93330	-0.08261716
180	0xbdc77f67	-0.09741097
181	0x3c9f737b	0.019464245
182	0x3d599310	0.053118765
183	0xbbb9180c	-0.0056486186
184	0x3d3f0b9e	0.04664194
185	0xbd751fcd	-0.05984478
186	0x3cdd2a86	0.026997816
187	0x3c195d28	0.009360589
188	0x3c4d2518	0.012521051
189	0x3d5b8b34	0.05359955
190	0xbdb42003	-0.08795168
191	0xbb828701	-0.003983379
192	0xbd31f19e	-0.043443315
193	0x3def33dc	0.11679813
194	0xbd7fcc3c	-0.062450632
195	0x3db162e8	0.08661443
196	0x3da67d76	0.081293985
197	0x3e1fb11f	0.1559491
198	0xbc515fe4	-0.01277921
199	0x3d7c96ed	0.06166737
200	0xbda51f38	-0.08062595
201	0x3dddf6d6	0.10838096
202	0x3e348bfb	0.17631523
203	0x3d3ca692	0.04605729
204	0xbd8f714f	-0.07004034
205	0xbe1388fe	-0.14407727
206	0xbd2cce0f	-0.0421887
207	0xbd28b6e2	-0.041190036
208	0xbdad77e7	-0.08470135
209	0x3d156ae1	0.03647888
210	0xbd4ad66e	-0.049520902
211	0x3c7f8074	0.01559459
212	0xbc2e115e	-0.010624258
213	0x3bb5e53c	0.0055510085
214	0xbced783c	-0.028987996
215	0x3e00413c	0.12524885
216	0x3cb0fac0	0.021603942
217	0xbda73a1b	-0.081653796
218	0xbc63a591	-0.013894455
219	0x3c67f669	0.01415787
220	0xbd9751b4	-0.073886305
221	0x3dce7a43	0.10081913
222	0xbd24785f	-0.040153857
223	0xbc13b10d	-0.00901438
224	0xbd2337fb	-0.03984831
225	0xbc9a4fbe	-0.018836852
226	0xbab2cc57	-0.001364122
227	0xbcbd6181	-0.023117783
228	0xbde40bb6	-0.11135046
229	0xbd592c1c	-0.05302058
230	0xbcbd758f	-0.023127345
231	0xbd8eca8b	-0.06972226
232	0x3d8fb5dd	0.070171095
233	0xbcaa22b6	-0.020768505
234	0xbc39d891	-0.011343137
235	0xbd697876	-0.056999646
236	0xbd8bec12	-0.06832136
237	0x3d801225	0.06253461
238	0x3d4c7940	0.04992032
239	0xbcfbac52	-0.030721817
240	0xbd848690	-0.06470978
241	0xbda98f3d	-0.08279274
242	0x3b825ba7	0.003978211
243	0x3d7ef8a7	0.062248852
244	0xbd600665	-0.0546936
245	0xbd7be512	-0.061497755
246	0x3de16e55	0.11007372
247	0xbe20f998	-0.15720212
248	0xbb948157	-0.00453202
249	0x3d5c4000	0.053771973
250	0x3c6be143	0.014396968
251	0xbd8633d1	-0.06552852
252	0xbd4e00ed	-0.05029385
253	0x3dd71560	0.10502124
254	0xbd585e34	-0.052824214
255	0x3c4fd47c	0.012684938

fc2.bias f4 [256]
0	0x3c8f9ee7	0.017531825
1	0xbbe4b526	-0.0069796024
2	0xbcd6715c	-0.0261771
3	0xbb1302bf	-0.0022432057
4	0x3bb59fd0	0.005542733
5	0xbc82af35	-0.015952686
6	0xbbd693d4	-0.006548384
7	0x3c88d84c	0.0167047
8	0xbc3bb757	-0.011457286
9	0xbca33f36	-0.019927602
10	0x3c033fe2	0.008010836
11	0x3bf94563	0.0076071485
12	0x3b5a44b4	0.003330511
13	0x3cf90749	0.030398982
14	0xbbc7819d	-0.006088449
15	0xbc091bd5	-0.008368452
16	0x3cd7bf28	0.026336268
17	0xbcba3dc9	-0.02273454
18	0xbac124f5	-0.0014735745
19	0xbc12a39d	-0.008950141
20	0xb9ee3151	-0.0004543164
21	0x3c7095de	0.014684169
22	0x3ae9df09	0.0017842959
23	0xbc97e39a	-0.018541146
24	0xbcc71245	-0.024300704
25	0x3c11d16a	0.008900026
26	0xbc84dfe9	-0.01622005
27	0x3c6bd2bc	0.014393505
28	0x3b529c15	0.003213649
29	0xbb77188f	-0.0037703847
30	0xbc793ca0	-0.015212208
31	0xbc5fb061	-0.013652892
32	0xbd057e77	-0.03259131
33	0xbc5e91da	-0.013584578
34	0x3c86f80d	0.016475702
35	0xbc295d0c	-0.0103371255
36	0x3cc891dd	0.024483616
37	0xbbe896d4	-0.0070980582
38	0xbc6e9dfc	-0.014564034
39	0x3ccf95c0	0.025339961
40	0x3b915962	0.004435704
41	0xbbdf5992	-0.0068160975
42	0xbc202b40	-0.009775937
43	0xbc41967e	-0.011815665
44	0x3c859d65	0.016310403
45	0xbc436fad	-0.011928481
46	0x3b0664bb	0.0020506817
47	0xbc58d4c2	-0.013234319
48	0x3ad87446	0.0016514144
49	0x3c057a51	0.008146838
50	0xbc4e5b6d	-0.01259504
51	0x3d0d708c	0.03453116
52	0x3b7e80eb	0.0038834165
53	0xba0e82f0	-0.00054363813
54	0xbae7a356	-0.0017672579
55	0x3c224db8	0.009906225
56	0xbcd9e92d	-0.026600445
57	0x3b840e01	0.0040299897
58	0xbb4e783b	-0.0031504768
59	0x3cb15787	0.021648182
60	0x3cdebfbc	0.027191035
61	0xbceedd2c	-0.029158197
62	0x3c6d4a94	0.014483113
63	0x3b932e41	0.004491598
64	0xbbdd8afa	-0.006760952
65	0x3aea8c43	0.0017894584
66	0xbc51cfa1	-0.01280585
67	0x3bcc7ac2	0.00624022
68	0x3c0296c9	0.00797052
69	0xbb9dbd58	-0.0048138313
70	0xbcca0cb1	-0.024664255
71	0x3c384779	0.011247509
72	0xbc99339b	-0.018701365
73	0xbc88be35	-0.01669226
74	0xbbacc262	-0.0052721957
75	0x3d01b802	0.031669624
76	0xbc8c475a	-0.017123867
77	0x3b7b90fb	0.0038385976
78	0xbc6e0cbf	-0.014529406
79	0x3b7b40ca	0.0038338178
80	0xbbdd6542	-0.0067564556
81	0xbb553acd	-0.0032536269
82	0x3bea659c	0.007153226
83	0x3c7c061e	0.015382318
84	0xbbf38301	-0.0074313884
85	0x3c5da0fd	0.013527152
86	0xbb4b7240	-0.003104344
87	0xbc31c146	-0.010849303
88	0xbae7760c	-0.0017659082
89	0xbc81d90f	-0.015850572
90	0xbc052cad	-0.008128327
91	0x3b058a64	0.0020376677
92	0xbcaec741	-0.021335246
93	0x3b29333c	0.0025817892
94	0x3b4125ff	0.002947211
95	0xbb26b0da	-0.0025435002
96	0xbcd7c880	-0.026340723
97	0x3bebeed3	0.007200101
98	0xbca85c0a	-0.0205517
99	0x3cc8f018	0.024528548
100	0xbc4fc653	-0.0126815615
101	0xbaca6b79	-0.0015443406
102	0xbca5cfef	-0.020240752
103	0xb8b25e65	-8.505284e-05
104	0x3b191ac0	0.0023361892
105	0x3b13b8d6	0.002254059
106	0xbcc75952	-0.024334583
107	0xbc1c3409	-0.0095338905
108	0x3c090edc	0.008365359
109	0x3c030a19	0.007998013
110	0xbc6e87db	-0.014558758
111	0x3c9c9fe1	0.019119205
112	0xbb148012	-0.0022659344
113	0x3c01ad95	0.00791492
114	0xbb8b8b5b	-0.004258556
115	0x3d09caee	0.033640794
116	0xbc6074d3	-0.013699728
117	0xbb708233	-0.0036698699
118	0xbbc735da	-0.0060794177
119	0x3c922481	0.017839672
120	0x3ca504b5	0.020143846
121	0x3ccb8a08	0.024846092
122	0xbc14e9cf	-0.009088947
123	0xbc81ec75	-0.015859822
124	0xbad22a64	-0.0016034362
125	0xbc34b133	-0.011028576
126	0x3c9f1fab	0.01942428
127	0x3c3750b2	0.011188673
128	0xbbd9cbb7	-0.006646599
129	0x3c73e09f	0.014885097
130	0xbcd8800b	-0.026428243
131	0x3bb694ed	0.0055719526
132	0xbca52e8b	-0.020163795
133	0xbc1614c0	-0.009160221
134	0x3c6ca6c8	0.014444061
135	0xbb266322	-0.0025388678
136	0xbbfb4d5e	-0.007669135
137	0xbbcaacea	-0.0061851637
138	0xbb6e3f52	-0.003635366
139	0x3c7123a1	0.014717967
140	0xbb89685a	-0.004193348
141	0x3c3c08a2	0.011476668
142	0xbc794708	-0.015214689
143	0x3c4380fc	0.011932608
144	0x3c4129b3	0.011789727
145	0x3aa53829	0.0012605238
146	0x391e2505	0.00015081845
147	0x3c9125fb	0.017718306
148	0x3cadeb76	0.02123044
149	0xbb5df93a	-0.0033870474
150	0xbbcab338	-0.0061859153
151	0xbc2dc9b7	-0.010607175
152	0xbc381561	-0.011235566
153	0xbbfe4338	-0.007759478
154	0x3c20b5ce	0.009808971
155	0x3ad329eb	0.0016110515
156	0xbc21320f	-0.009838595
157	0x3a95c180	0.0011425465
158	0x3b2eccf3	0.0026672452
159	0xbc93eaff	-0.01805639
160	0x39bc5019	0.00035917832
161	0xbc4dac76	-0.012553325
162	0xbb8fb1af	-0.004385195
163	0x3cea647a	0.028612364
164	0xbc780e41	-0.015140117
165	0x3a1746ae	0.0005770725
166	0xbb6fe756	-0.0036606393
167	0x3c8141a6	0.015778374
168	0x3c1a2c46	0.00940997
169	0x3c1116e9	0.00885556
170	0xbc393fb4	-0.011306692
171	0xbccd97bd	-0.025096769
172	0xbcc5e82b	-0.024158558
173	0x3c7d910c	0.015476476
174	0x3c63a0ce	0.013893319
175	0x3ca03a3e	0.019559022
176	0x3c2aa102	0.010414364
177	0x3c2fb86a	0.01072512
178	0xbbd1d0a2	-0.006403045
179	0x3c77afb1	0.015117572
180	0xba470b96	-0.0007592974
181	0xbc3cc5a5	-0.0115217315
182	0xbc5b3b4c	-0.013380837
183	0xbce10bb4	-0.0274714
184	0x3cc27e73	0.023741936
185	0xbc89335d	-0.016748125
186	0x3d0466a9	0.032324467
187	0xbbe0fb47	-0.006865892
188	0xbc69b7c3	-0.014265004
189	0xba1e7f66	-0.00060462055
190	0xbc1a8474	-0.009430993
191	0x3bb1ed5d	0.0054299072
192	0xbc79f17b	-0.015255327
193	0xbc21b936	-0.009870818
194	0xbb8c56e2	-0.004282818
195	0x3c86db3b	0.01646196
196	0xbaa9a2ec	-0.0012942231
197	0xbbe9b6bd	-0.00713238
198	0x3caab1ef	0.020836798
199	0xbc778b60	-0.015108913
200	0x3c4f457a	0.012650842
201	0x3bc0da0a	0.0058853673
202	0x3c28ce09	0.010303029
203	0xbc4f731b	-0.012661721
204	0xbc0bbd09	-0.008528956
205	0xbacc45e4	-0.0015584794
206	0x3b707f60	0.0036697015
207	0xbc692028	-0.014228858
208	0xbc74cb9f	-0.014941125
209	0xbbedf2ac	-0.0072615948
210	0x3ba4c836	0.00502875
211	0xbaa8876e	-0.0012857744
212	0xbb1f3e7d	-0.002429872
213	0x3b8920bb	0.00418481
214	0xbbfb6ee8	-0.007673133
215	0xbb4dfd79	-0.00314316
216	0xbc464031	-0.012100265
217	0xbc44ecff	-0.012019395
218	0x3b5cd12c	0.0033694012
219	0xbc2af47c	-0.010434266
220	0xbc1d46ee	-0.0095994305
221	0xbc49152d	-0.012273115
222	0x3ae5a00e	0.0017519013
223	0x3c2a2beb	0.010386447
224	0xbb801c96	-0.0039096577
225	0xbba756b3	-0.005106771
226	0x3b4626d7	0.0030235553
227	0x3b09a40d	0.0021002323
228	0x3a2f5d68	0.0006689639
229	0xbb6928c7	-0.0035577284
230	0xbaf5cb1b	-0.0018752547
231	0xbcb3f24a	-0.021966118
232	0xbab3c521	-0.0013715365
233	0xbcad3784	-0.021144636
234	0x3bde3a8f	0.006781883
235	0x3b5604c0	0.003265664
236	0xbc90b47e	-0.01766419
237	0xbc50e7fd	-0.012750623
238	0x3c899f3a	0.016799558
239	0xbbf997ec	-0.0076169875
240	0x3d229e6b	0.03970186
241	0xbc83c999	-0.01608734
242	0xbc06aab9	-0.008219414
243	0xbcb765aa	-0.022387344
244	0xbc748b5f	-0.014925807
245	0xbb89a76d	-0.004200867
246	0x3c078335	0.008271028
247	0xbc5ec061	-0.013595671
248	0x3c470fb0	0.012149736
249	0xbc4d4b6f	-0.012530192
250	0xbc5fc7c9	-0.013658472
251	0xba5a2186	-0.00083210354
252	0x3c75f945	0.015013044
253	0xbc9a9cb7	-0.018873556
254	0x3c6a8f87	0.014316446
255	0x3c759e2c	0.014991324

fc3.weight f4 [256, 256]
0	0x3dcc2173	0.099673174
1	0x3bfdac33	0.007741475
2	0xbc8df89f	-0.017330466
3	0xbcc80db1	-0.024420591
4	0xbda0f09b	-0.07858392
5	0x3b09ee38	0.002104653
6	0x3d73744c	0.05943708
7	0xbb33f1bf	-0.0027457324
8	0xbca8930d	-0.020577932
9	0xbddcb324	-0.10776356
10	0xbdf59c37	-0.11992686
11	0x3d5f1a01	0.05446816
12	0x3c612e8e	0.01374401
13	0xbdce8104	-0.100832015
14	0x3da800b7	0.08203261
15	0xbd889953	-0.06669869
16	0x3d9be308	0.07611662
17	0xbbc4deec	-0.0060080197
18	0xbd58088d	-0.05274253
19	0xbda77292	-0.081761494
20	0xbd9c4c9c	-0.076317996
21	0xbcaa6d5e	-0.020804103
22	0xbc3ee7e3	-0.011651966
23	0x3d0e92b8	0.03480789
24	0xbe02358a	-0.12715736
25	0x3dc3ddeb	0.09563812
26	0xbd4ae837	-0.049537864
27	0xbe00ea27	-0.12589322
28	0xbd8cadcd	-0.06869087
29	0x3d48c792	0.04901845
30	0xbd90e01c	-0.070739955
31	0xbc1d58d3	-0.009603697
32	0xbd6f7a4f	-0.058466252
33	0x3c507cf0	0.0127251
34	0xbd33bcb6	-0.04388114
35	0x3c0dc203	0.008652213
36	0x3c055e81	0.008140207
37	0xbd2bd83a	-0.041954257
38	0x3c8de036	0.017318826
39	0x3de29337	0.11063235
40	0xbd587619	-0.052847
41	0xbd4d1643	-0.05007006
42	0x3d192406	0.03738787
43	0xbbe2dc7f	-0.006923258
44	0x3ce30a82	0.027714971
45	0x3c8f541f	0.017496167
46	0xbd9cfd26	-0.07665472
47	0x3d8e2713	0.069410466
48	0xbd9803ef	-0.07422625
49	0x3e0e293f	0.13882922
50	0xbdab2635	-0.08356897
51	0xbb2ce367	-0.002638066
52	0x3b5a39eb	0.0033298682
53	0xbde603ff	-0.11231231
54	0x3d17ee73	0.037092637
55	0xbd5e2c89	-0.05424169
56	0x3e124e51	0.14287688
57	0x3d142dab	0.036176365
58	0x3d1f453f	0.038884398
59	0x3d3d7c13	0.046260905
60	0xbd63894e	-0.055550866
61	0xbd2b1eed	-0.04177754
62	0x3c85f533	0.016352272
63	0xba5b19f1	-0.00083580526
64	0xbd953db2	-0.07287158
65	0x3cdf9c64	0.027296253
66	0xbd3b2ed0	-0.04569894
67	0xbd6de1b9	-0.058076594
68	0xbc2dc8a1	-0.010606916
69	0x3cfff8f4	0.03124664
70	0xbda09855	-0.07841555
71	0xbd864cb8	-0.06557602
72	0xbc067185	-0.008205776
73	0xbcfd02ac	-0.030885063
74	0xbd82906b	-0.06375202
75	0x3cb9a906	0.022663604
76	0xbd98d6cf	-0.074628465
77	0x3d5d0260	0.053957343
78	0xbd8dea31	-0.06929434
79	0xbcf7bf64	-0.03024263
80	0xbd355bbd	-0.04427694
81	0xbd46b682	-0.048513897
82	0x3d19d2a8	0.037554413
83	0xbced488f	-0.028965263
84	0xbd26d8d1	-0.040734116
85	0xbe061a81	-0.13096048
86	0xbd849758	-0.06474179
87	0x3d57bc87	0.052670028
88	0xbe1b5e83	-0.15172772
89	0x3d579072	0.05262799
90	0x3d1d1635	0.038351256
91	0x3cd56069	0.026046949
92	0xbdc6cc35	-0.09706918
93	0x3cee89d0	0.029118448
94	0xba7b189e	-0.00095785584
95	0xbdd1ab3c	-0.102377385
96	0x3d5badc0	0.053632498
97	0x3a3fda2e	0.0007318583
98	0xbd25f33b	-0.040515166
99	0x3d976c52	0.07393707
100	0xbc4e48d4	-0.012590606
101	0x3c49a32c	0.01230697
102	0xbc54bbb5	-0.012984206
103	0x3b9baade	0.0047505936
104	0x3d0d94fd	0.034565914
105	0x3db67314	0.08908668
106	0xbe1385ac	-0.1440646
107	0x3cab37f4	0.020900704
108	0x3d8b8a33	0.06813469
109	0x3cf08c7b	0.029363861
110	0xbd2d9a61	-0.042383555
111	0xbd8e66ee	-0.06953226
112	0x3d8781e5	0.06616572
113	0x3cc1cb59	0.023656534
114	0x3d499f34	0.049224094
115	0x3c914ac5	0.017735848
116	0x3d9e3ee1	0.07726837
117	0xbd80e7e1	-0.062942274
118	0x3d17604a	0.036957063
119	0x3dae0070	0.08496177
120	0x3d5eebd6	0.05442413
121	0x3c74ffa6	0.014953529
122	0xbda2294b	-0.07918032
123	0xbcf0dec2	-0.029403094
124	0x3e0a77d2	0.1352227
125	0xbc3c2133	-0.011482525
126	0x3df82c9a	0.12117882
127	0xbd8a0dcc	-0.06740913
128	0xbc89dd4a	-0.016829152
129	0x3dabf856	0.08396976
130	0xbcc45dba	-0.023970474
131	0xbdd52482	-0.10407354
132	0xbdfae562	-0.122507825
133	0x3de4068c	0.11134061
134	0x3d7c74cc	0.061634824
135	0xbc810a5e	-0.015752014
136	0xbda82b8a	-0.082114294
137	0x3e0e224d	0.13880272
138	0xbd94a818	-0.07258624
139	0xba57e89f	-0.00082362624
140	0xbd329825	-0.043602128
141	0xbdd1d183	-0.10245039
142	0xbd28dc3c	-0.041225657
143	0x3de93feb	0.113891445
144	0x3cee632b	0.029100021
145	0xba8fb18b	-0.0010962946
146	0xbde7f4fd	-0.11326025
147	0xbd5e73dc	-0.05430971
148	0x3d5aa1e3	0.053377043
149	0xbd04a5c5	-0.032384653
150	0x3d6c4e8f	0.057692107
151	0xbc81d4a4	-0.015848465
152	0xbd83b89e	-0.06431697
153	0x3d93f46a	0.07224353
154	0x3d72c75d	0.05927216
155	0xbd2c2690	-0.042028964
156	0xbdbd7b71	-0.0925206
157	0x3dd86920	0.10566926
158	0xbd9bb43d	-0.07602737
159	0x3d204b9c	0.039134607
160	0x3c4137d3	0.011793095
161	0x3cc463e3	0.023973411
162	0xbc56ca97	-0.013109825
163	0x3da23d63	0.07921865
164	0x3d19e789	0.037574325
165	0x3e00529a	0.1253151
166	0x3e0e87e8	0.13919032
167	0x3c0e104c	0.008670878
168	0x3d141b36	0.036158763
169	0xbcdd11f1	-0.026986094
170	0x3d4e0e8a	0.050306834
171	0x3b828ffd	0.00398445
172	0xbd0073df	-0.031360503
173	0x3c871bdb	0.016492775
174	0xbc460acd	-0.012087536
175	0x3d19957b	0.03749607
176	0xbd158a3b	-0.03650878
177	0xbcf06109	-0.029343145
178	0xbda948c5	-0.08265833
179	0xbcd77aac	-0.026303612
180	0xbd908a02	-0.07057573
181	0x3befc868	0.0073175915
182	0x3d25fc4d	0.040523816
183	0xbd3d1edb	-0.046172004
184	0x3cb0b403	0.021570211
185	0x3daf6708	0.085645735
186	0xb980b3bc	-0.00024547975
187	0xbe018d29	-0.12651505
188	0x3b25f6db	0.002532414
189	0xbd2c97d5	-0.042136986
190	0x3d3f4a08	0.04670146
191	0x3b88e9fa	0.004178283
192	0x3d2454a5	0.040119786
193	0xbd8569dd	-0.065143324
194	0xbc90c4d6	-0.017671984
195	0x3d509333	0.05092163
196	0xbb89bec2	-0.0042036483
197	0x3db0ff4d	0.08642445
198	0xbc17836f	-0.009247645
199	0x3d0fac5b	0.03507648
200	0x3d120238	0.035646647
201	0x3d1b8435	0.03796788
202	0xbc759df4	-0.014991272
203	0x3d5a3262	0.053270705
204	0xbd10bc06	-0.035335563
205	0x3e087ee7	0.1332966
206	0xbd885721	-0.066572435
207	0xbd8656b3	-0.06559505
208	0xbdb9b485	-0.090676345
209	0xbcb64e50	-0.02225414
210	0xbd8a153e	-0.06742333
211	0x3d2c9093	0.042130064
212	0x3b56e3ba	0.0032789544
213	0xbbf9b7e7	-0.0076208
214	0xbcb8b2dc	-0.022546224
215	0xbd69dfeb	-0.05709831
216	0xbdbff1aa	-0.09372266
217	0x3c8b6bbe	0.017019149
218	0x3c1fddab	0.00975744
219	0xbd2ff413	-0.042957377
220	0x3e0a460a	0.1350328
221	0xbce8f1e6	-0.028435659
222	0x3ce19756	0.027537983
223	0xbdf21d87	-0.11822038
224	0x3d353d2e	0.0442478
225	0xbd3813a3	-0.044940602
226	0xbd9d9b24	-0.07695606
227	0xbe111ca4	-0.14171082
228	0xbd82ba54	-0.063831955
229	0x3d789e38	0.060697764
230	0xbd814977	-0.063128404
231	0x3e040b02	0.12894824
232	0xbd8d2ada	-0.06892939
233	0x3c7072f9	0.014675849
234	0x3de727f8	0.1128692
235	0x3d0e5ef3	0.03475852
236	0xbd4b79a8	-0.049676567
237	0xbd5945f2	-0.05304522
238	0xbc8c57cf	-0.017131714
239	0xbdcef43b	-0.10105177
240	0x3d2c1f0b	0.042021792
241	0x3db92e22	0.09042002
242	0xbdc35471	-0.0953759
243	0x3ca57237	0.020196063
244	0x3d03247a	0.03201721
245	0xbdd0c8cd	-0.1019455
246	0xbc438097	-0.011932514
247	0xbd8f309f	-0.069916956
248	0x3c7265d7	0.014794788
249	0xbb8f7378	-0.0043777786
250	0x3b634fdb	0.0034685049
251	0x3d04195a	0.03225074
252	0xbad28180	-0.0016060323
253	0x3d517bc6	0.05114343
254	0xbc11a0a7	-0.0088884
255	0x3c0f69a8	0.008753218

fc3.bias f4 [256]
0	0x3b2ee828	0.002668867
1	0x3cb1c327	0.021699501
2	0xbc95df11	-0.018294843
3	0xbd083108	-0.033249885
4	0x3c1f3553	0.009717303
5	0x3c7130e8	0.014721133
6	0x3c1aecd7	0.009455881
7	0x3b86f1d1	0.004118182
8	0x3afb28ad	0.0019161903
9	0x3b951ee4	0.0045508016
10	0x3c9832a7	0.01857884
11	0x3caa3c52	0.020780716
12	0xbbf51d28	-0.0074802823
13	0xbc82e7e1	-0.01597971
14	0x3c8c4798	0.017123982
15	0x3cb8845d	0.022524053
16	0xbbe862d7	-0.0070918608
17	0x3cb298de	0.021801408
18	0xbb8619fc	-0.004092453
19	0x3c7fe1ab	0.015617768
20	0xbc9fec9d	-0.019522006
21	0xbc7e395f	-0.015516608
22	0xbbaf125c	-0.005342765
23	0xbd23e58b	-0.04001383
24	0xbaa1764f	-0.0012318584
25	0xbc5b277e	-0.013376115
26	0x3c277f9b	0.010223295
27	0xbc4a7c59	-0.012358748
28	0x3bd41302	0.0064719925
29	0x3a030c86	0.00049991196
30	0x3c89b70b	0.016810915
31	0xb94d8fb2	-0.00019603854
32	0x3c04e042	0.008110108
33	0x3d024117	0.031800356
34	0x3bd816ff	0.006594538
35	0x3c7c5318	0.0154006705
36	0x3a8ba284	0.0010653292
37	0x3c631920	0.013860971
38	0xbc69bf86	-0.014266854
39	0x3ce6ba08	0.028164878
40	0x3c283a89	0.010267862
41	0x3b51671d	0.003195233
42	0xbd206103	-0.039155018
43	0xbadf3ea8	-0.0017032223
44	0x3cc77eee	0.024352517
45	0x3be3c865	0.006951379
46	0xbaaef9bb	-0.0013349572
47	0x3b6f8f2c	0.0036553843
48	0xbc942b7f	-0.018087147
49	0x3cd9c813	0.02658466
50	0x3cb8e921	0.022572102
51	0x3c176a2c	0.009241622
52	0x3c138afe	0.009005306
53	0xbcdffe5b	-0.027342966
54	0xbcddaf92	-0.027061258
55	0xbc86b6dd	-0.016444618
56	0x3c2ba3e0	0.010476083
57	0x3a464427	0.0007563256
58	0xbc36649f	-0.011132388
59	0xbbdf4264	-0.0068133343
60	0xbbffbe01	-0.0078046327
61	0x39c433c5	0.00037422605
62	0xbbbe03dd	-0.0057988004
63	0xbc97cfee	-0.018531766
64	0x3ca91028	0.020637587
65	0x3c8c8cd3	0.017156994
66	0xbc967b4d	-0.018369341
67	0x3c5630ee	0.013073189
68	0xbc219c35	-0.009863903
69	0xbada9383	-0.0016676042
70	0xbc1b41bf	-0.009476124
71	0x3cd1e226	0.025620531
72	0x3cd4aa5a	0.025960136
73	0x3c6e4e73	0.014545071
74	0x3cd69e52	0.02619854
75	0xbb349110	-0.0027552284
76	0x3c415dac	0.011802118
77	0x3c87aea5	0.01656277
78	0x3c158e2b	0.009128134
79	0x3b488e51	0.0030602405
80	0x3d2b4fdf	0.041824218
81	0x3cc3d815	0.023906747
82	0xbd226d36	-0.039654933
83	0x3c7a4b7d	0.015276787
84	0xbb45d25d	-0.00301852
85	0xbd0c1669	-0.03420106
86	0xbab26418	-0.0013610153
87	0x3d0ef325	0.03489985
88	0xbbbe479d	-0.005806877
89	0x3c170a49	0.009218761
90	0xbcd38f8f	-0.02582529
91	0x3bfee20f	0.007778413
92	0xbc1d60a0	-0.009605557
93	0x3ba8c265	0.0051501268
94	0xbbcd2084	-0.0062599797
95	0x3ca90712	0.020633254
96	0x3c822710	0.015887767
97	0x3c485faf	0.012229844
98	0x3b65f77e	0.0035090144
99	0xbbbb994c	-0.0057250615
100	0x3c84511a	0.016151953
101	0x3bb75b2a	0.0055955844
102	0xb95ed331	-0.00021250245
103	0x3c765563	0.015035006
104	0x3c08dc08	0.008353241
105	0x3cb5aa34	0.022175886
106	0x3c6f09f5	0.014589776
107	0x3ce0c0f4	0.027435757
108	0xbbad9a7f	-0.0052979584
109	0xbc3fa527	-0.01169709
110	0x3c9a442b	0.018831333
111	0xbccfa3e3	-0.025346702
112	0x3ca65a88	0.02030684
113	0xbb5933d0	-0.0033142455
114	0xbbbc881b	-0.0057535297
115	0xbb098e50	-0.0020989366
116	0xbd1da54c	-0.038487718
117	0x3d14d2ef	0.036333974
118	0x3c8c3310	0.017114192
119	0xbc2ab799	-0.01041975
120	0x3cd12aa8	0.025533035
121	0x3ba07b0d	0.0048974813
122	0xbccaf277	-0.02477382
123	0x3c85b675	0.016322354
124	0xbbd480b3	-0.0064850687
125	0xbd1bf010	-0.03807074
126	0x3ce38df5	0.027777651
127	0x3cb50ee5	0.022101829
128	0xbc48affa	-0.012248987
129	0x3c988964	0.0186202
130	0x3c058ba2	0.008150967
131	0x3c5df1a2	0.013546379
132	0x3d24d82f	0.04024523
133	0x3d373211	0.04472548
134	0xbc8c9b4e	-0.017163899
135	0xbcbe6aee	-0.023244347
136	0xbc2d8372	-0.010590421
137	0x3cd58120	0.026062548
138	0x3ba47071	0.005018287
139	0x3cb10322	0.02160794
140	0x3c161c6e	0.009162052
141	0xbd0b62fd	-0.03402995
142	0xbc898f60	-0.016792
143	0xbb3d24e9	-0.0028861111
144	0xbc7a3c1d	-0.015273121
145	0x3ba6fee0	0.0050963014
146	0x3b9f4757	0.0048607993
147	0xbc9b8a32	-0.018986795
148	0xbba6eaed	-0.0050939233
149	0x3c6fe144	0.01464111
150	0xbcc0f352	-0.023553524
151	0xbc86ef0b	-0.016471406
152	0x3cdfcc52	0.027319107
153	0xbc8611ef	-0.016365973
154	0x3b3862b4	0.0028135004
155	0xbcd0faf9	-0.025510298
156	0x3c8b9f63	0.017043775
157	0xbb9f3173	-0.0048581897
158	0xbc88fd6d	-0.016722405
159	0x3c7702c0	0.015076339
160	0x3d1ae6dd	0.037817825
161	0xbc51c747	-0.012803859
162	0x3cec5ff6	0.028854351
163	0xbb38b98c	-0.0028186766
164	0x3cd2caa1	0.025731387
165	0xbcbb2948	-0.022846833
166	0x3aade9c8	0.0013268525
167	0xbaef73b3	-0.0018268734
168	0x3c69b35f	0.014263957
169	0x3bd46e53	0.0064828782
170	0xba196f38	-0.00058530597
171	0x3ca828d5	0.020527283
172	0xbafcdb13	-0.0019291363
173	0xbac702ac	-0.0015183291
174	0x3bedcbe3	0.007256971
175	0x3cd5d962	0.026104633
176	0xbc766735	-0.015039255
177	0xbcf9df78	-0.030502066
178	0xbc50038a	-0.012696156
179	0xbca88818	-0.020572707
180	0x3c8b33da	0.016992498
181	0x3c8fbe92	0.017546926
182	0x3b92e164	0.004482435
183	0xbbf4a319	-0.007465732
184	0xbbd8f885	-0.0066214227
185	0xbc80aa97	-0.015706344
186	0xbcc223af	-0.023698656
187	0x3ce2e7c9	0.027698414
188	0xbbee5357	-0.0072731185
189	0x3ca24f81	0.019813301
190	0x3cd96106	0.026535522
191	0x3c0387b6	0.0080279615
192	0xbb78a140	-0.003793791
193	0x3c7aca43	0.015307012
194	0xbbc0c822	-0.0058832327
195	0xbbe6c44b	-0.007042443
196	0xbc2a4da1	-0.010394485
197	0x3c759dc8	0.014991231
198	0x3d2fc347	0.04291084
199	0x3c32d0b6	0.010914018
200	0x3a9075db	0.0011021452
201	0x3c01c245	0.007919853
202	0x3be86bc8	0.0070929267
203	0xbcb3472b	-0.021884521
204	0xbc08fadb	-0.00836059
205	0x3be3a8c6	0.0069476096
206	0xbcce9b81	-0.025220634
207	0x3c232650	0.009957865
208	0x3c88b5ac	0.01668819
209	0x3a770c57	0.0009424141
210	0xbc425bda	-0.011862719
211	0x3ba3d55a	0.0049997987
212	0x3ca0419f	0.01956254
213	0xbd021cc9	-0.031765733
214	0x3bd68a9d	0.0065472857
215	0x3be8cfd8	0.007104855
216	0xbd04663e	-0.03232407
217	0xbbb3dc9f	-0.0054889466
218	0x3cae3745	0.021266589
219	0x3cd6404e	0.02615371
220	0xbba7da62	-0.005122469
221	0xbcaf922e	-0.021432009
222	0x3bcba2c3	0.006214471
223	0x3cac4e2a	0.021033365
224	0x3c99ba82	0.018765692
225	0x3cddc6e1	0.027072372
226	0xbba3c3bf	-0.0049977
227	0x3be9b7f4	0.0071325246
228	0x3ce410d4	0.027840056
229	0x3c9a2b5e	0.018819507
230	0xbb9bf5be	-0.0047595194
231	0x3b512e46	0.003191845
232	0xbca1b113	-0.019737756
233	0x3ced2b4c	0.02895131
234	0xbce060ad	-0.027389849
235	0xbb685bf4	-0.00354552
236	0xbd070713	-0.03296573
237	0x3c788a12	0.015169637
238	0xbc137c18	-0.009001754
239	0x3bffa534	0.007801676
240	0xbc544e95	-0.012958189
241	0xbd1eac6f	-0.038738664
242	0x3bccc20d	0.0062487186
243	0xbcb90f1c	-0.022590213
244	0x3beee0d7	0.0072899866
245	0xbc201b6e	-0.009772165
246	0xbae04016	-0.0017108943
247	0xbb632e37	-0.0034664997
248	0x3ca7457e	0.020418879
249	0xbb94819e	-0.004532053
250	0xbc7a8de3	-0.0152926175
251	0x3aada1de	0.0013247093
252	0x3bee30c0	0.007268995
253	0xbcdbc9f9	-0.026829707
254	0xba4022c0	-0.0007329397
255	0xbc65bee3	-0.014022562

bottle_neck.weight f4 [8, 256]
0	0x3de9773b	0.113996945
1	0xbb1033cc	-0.002200353
2	0x3e373600	0.17891693
3	0x3d14f2a2	0.036364205
4	0xbdde5b1e	-0.10857223
5	0xbe70b53a	-0.23506632
6	0xbd7d9606	-0.06191065
7	0x3de41083	0.11135962
8	0xbd27313b	-0.040818434
9	0xbd5409ca	-0.051767148
10	0x3df24a2a	0.11830552
11	0x3dd3d0e2	0.103425756
12	0xbc1301b3	-0.008972573
13	0x3d0ce3ab	0.03439681
14	0xbd8da441	-0.069160946
15	0xbe0f6df2	-0.14006785
16	0xbdd90d17	-0.105982
17	0x3dcacbfc	0.09902188
18	0xbdc0cd4b	-0.094141565
19	0xbd289371	-0.041156236
20	0x3cbbb338	0.022912607
21	0x3cfe445a	0.031038452
22	0xbd3b47a3	-0.045722615
23	0x3dd29611	0.10282529
24	0x3cd0079d	0.025394255
25	0x3d175140	0.03694272
26	0xbdc27acf	-0.0949608
27	0x3d729772	0.05922646
28	0x3c8edfb5	0.017440656
29	0x3d1dc030	0.038513362
30	0xbe049775	-0.12948401
31	0x3d14ba86	0.036310695
32	0x3dd0c7a7	0.10194331
33	0xbd2f0a74	-0.04273458
34	0xbe3357be	-0.1751394
35	0xbd543e26	-0.051817082
36	0x3de469ea	0.11153014
37	0xbd98167c	-0.074261636
38	0x3be4437e	0.0069660535
39	0x3d427060	0.04747045
40	0xbdc4d974	-0.096117884
41	0x3c81e42c	0.015855871
42	0xbc2457a6	-0.010030663
43	0xbe21b65e	-0.15792224
44	0x3db4506b	0.08804401
45	0x3cb51fd6	0.022109907
46	0xbbc03389	-0.0058655185
47	0xbd4723df	-0.048618194
48	0x3db4e050	0.08831847
49	0xbc16929e	-0.00919023
50	0xbd67af02	-0.056563385
51	0x3d3c217b	0.045930367
52	0x3d8a7f6a	0.067625836
53	0xbd1d64f8	-0.03842637
54	0x3d90816e	0.07055937
55	0xbd049562	-0.032369025
56	0x3d09f88e	0.033684306
57	0x3e0052a4	0.12531525
58	0x3cd01f04	0.025405414
59	0xbd355054	-0.04426606
60	0x3b7a7d77	0.0038221756
61	0xbd964bc2	-0.073386684
62	0xbcf5b2d9	-0.029992508
63	0x3cbb4d7d	0.022864098
64	0xbd53a31d	-0.05166923
65	0xbc93cf0c	-0.018043064
66	0xbbe1bf31	-0.006889247
67	0x3d1a48cc	0.03766708
68	0x3dd603ac	0.10449919
69	0xbd995b02	-0.074880615
70	0x3cb35aff	0.021893976
71	0x3d8bd5cc	0.06827888
72	0xbb38a367	-0.0028173567
73	0xbdbfbc67	-0.09362107
74	0xbc527992	-0.012846367
75	0x3dc890bb	0.0979323
76	0x3d30e782	0.043189533
77	0x3e37c242	0.17945197
78	0xbe14e213	-0.14539365
79	0xbd4c4c4c	-0.04987745
80	0xbe08243a	-0.1329507
81	0x3d773852	0.060356446
82	0x3d3c144e	0.0459178
83	0x3d1fe7c6	0.039039396
84	0xbd5e14f9	-0.05421922
85	0x3d9cd63a	0.07658048
86	0x3d0ec61d	0.034856904
87	0xbd328373	-0.04358239
88	0xbc602bfd	-0.013682363
89	0xbdcd8a06	-0.100360915
90	0x3db2b540	0.08725977
91	0xbdb2ac36	-0.08724253
92	0xbb693e05	-0.0035589945
93	0xbde4d4ac	-0.111733764
94	0xbe5baf1f	-0.21453522
95	0xbe0c987d	-0.13730045
96	0xbe3fde49	-0.18737139
97	0xbcd1085d	-0.025516683
98	0xbcbaf0cf	-0.022819905
99	0x3dd14e4b	0.10220011
100	0xbe264025	-0.16235407
101	0xbd0731c4	-0.033006445
102	0x3d09ff13	0.033690523
103	0xbd6f12c5	-0.05836751
104	0xbd933b35	-0.07189027
105	0x3da00b2c	0.07814631
106	0xbc90c5fb	-0.01767253
107	0xbd267ecc	-0.040648267
108	0xbdbbc946	-0.09169249
109	0x3e248c22	0.16069081
110	0x3d02d58b	0.03194193
111	0x3ca79ca8	0.020460442
112	0xbbd87817	-0.0066061127
113	0x3d584da6	0.052808426
114	0xbe6aa285	-0.22913559
115	0xbdb0f2ba	-0.086400464
116	0x3e1ee18d	0.15515728
117	0xbdedf652	-0.116192475
118	0x3d73a8d0	0.059487164
119	0xbda44a64	-0.080220014
120	0xbd81df33	-0.063414
121	0x3d1c7214	0.03819473
122	0xba280f7e	-0.0006411
123	0xbc8a4d5a	-0.016882587
124	0x3d6384c1	0.055546526
125	0xbcd5081c	-0.026004843
126	0x3ccc938b	0.024972698
127	0x3d13306b	0.035934847
128	0x3de7a499	0.113106914
129	0xbdb77d03	-0.08959391
130	0x3be6fa77	0.0070489007
131	0xbd000163	-0.031251322
132	0xbd60fadb	-0.054926734
133	0xbd5d3106	-0.05400183
134	0x3ddbe436	0.10736887
135	0xbe09c0f2	-0.13452509
136	0x3bbe2074	0.0058022086
137	0x3db89a33	0.09013786
138	0xbbd8b03c	-0.0066128056
139	0xbc0acf0c	-0.008472215
140	0xbbae08d6	-0.005311112
141	0x3e5df760	0.21676397
142	0x3b206d67	0.0024479271
143	0x3d601999	0.05471191
144	0xbc607e92	-0.013702052
145	0xba9316d7	-0.0011222017
146	0x3d24bb09	0.040217433
147	0xbd256568	-0.04037991
148	0x3df12ae4	0.11775759
149	0x3bdbdf3d	0.0067099617
150	0x3e425c65	0.18980558
151	0x3dbf2bfb	0.093345605
152	0x3db803a6	0.08985071
153	0x3e05fed8	0.13085496
154	0xbd403600	-0.0469265
155	0x3e374af5	0.17899688
156	0x3e24a779	0.16079511
157	0x3d13ac18	0.036052793
158	0x3d0182c2	0.03161884
159	0xbe00d7e2	-0.12582353
160	0xbdd5a1b7	-0.10431235
161	0xbd8678d7	-0.06566017
162	0xbcfa09f8	-0.030522332
163	0xbd9bbf45	-0.07604841
164	0x3bb39949	0.0054809195
165	0xbc4dd44d	-0.0125628235
166	0x3e2104af	0.15724443
167	0xbe2e17a7	-0.1700121
168	0xbd979190	-0.07400811
169	0xbdd9a0dd	-0.10626385
170	0xbe13b8d2	-0.14425972
171	0xbd6430d1	-0.055710617
172	0x3cecdc01	0.0289135
173	0x3d907e63	0.07055356
174	0xbe1f252f	-0.15541528
175	0xbe51f904	-0.20505148
176	0x3d4d6341	0.050143484
177	0xbd00e089	-0.031464133
178	0xbd389c97	-0.04507121
179	0xbca0b57b	-0.019617787
180	0xbd1ba03f	-0.03799462
181	0xbe40ee91	-0.18841006
182	0x3bafc721	0.005364314
183	0xbd313a25	-0.04326834
184	0xbcda1bb0	-0.02662453
185	0x3d5ecd66	0.054395102
186	0x3dbea991	0.09309686
187	0x3be0ff23	0.006866352
188	0x3c825d35	0.015913585
189	0xbe2cf1da	-0.16889134
190	0xbd879879	-0.06620879
191	0xbdc1683d	-0.0944371
192	0x3da3f11d	0.08004973
193	0x3b37b51b	0.0028031531
194	0xbd920a83	-0.07130911
195	0x3c93d9fe	0.018048283
196	0x3da2eb9a	0.07955094
197	0xbd4e5374	-0.050372556
198	0x3c6f4b95	0.0146054225
199	0xbd583030	-0.05278033
200	0xbda5d9c1	-0.08098174
201	0x3d981a81	0.0742693
202	0x3ce322d2	0.027726565
203	0xbdb022ba	-0.086003736
204	0x3d322d57	0.04350027
205	0xbd3b1735	-0.04567643
206	0x3af6ba8e	0.0018823908
207	0xbdfee0e6	-0.1244524
208	0xbd0531ec	-0.032518312
209	0x3c66db7f	0.014090418
210	0x3e000a45	0.12503918
211	0x3bff1eae	0.0077856397
212	0x3d920e4e	0.07131635
213	0xbadca0dd	-0.0016832609
214	0xbb44522c	-0.0029956205
215	0xbca530d3	-0.020164883
216	0x3d805b12	0.0626737
217	0xbcd76bb4	-0.026296474
218	0x3de51856	0.11186282
219	0xbdeb3cdc	-0.114862174
220	0xbd910c28	-0.07082397
221	0x3e5f03db	0.21778814
222	0x3d2978e3	0.041375052
223	0x3d7d6284	0.06186153
224	0xbc4b43b6	-0.01240628
225	0x3dfc5865	0.123215474
226	0x3df41f49	0.1192003
227	0x3c701d49	0.01465542
228	0x3da9893d	0.08278129
229	0xbdc6907f	-0.09695529
230	0xbe0171e0	-0.12641096
231	0x3da7caa8	0.081929505
232	0xbdd88b73	-0.10573473
233	0x3c465302	0.012104752
234	0xbddbcc2f	-0.10732304
235	0xbcf1048a	-0.02942111
236	0x3da445aa	0.080211
237	0x3cef9e38	0.02925025
238	0x3d0ee377	0.034884896
239	0xbe173761	-0.14767219
240	0xbd251ae7	-0.04030886
241	0x3cf5e2cf	0.030015377
242	0x3d980af5	0.07423965
243	0x3d18c2a7	0.03729501
244	0xbd681511	-0.056660715
245	0x3ce0b9cd	0.027432347
246	0x3c10022a	0.008789578
247	0xbc8b99ab	-0.017041048
248	0xbcdc9a7d	-0.026929135
249	0x3d12f382	0.03587676
250	0x3df90db3	0.12160816
251	0xbc8a77ba	-0.016902793
252	0x3d4978fd	0.04918765
253	0xbcd10483	-0.025514847
254	0x3ce3d664	0.02781219
255	0x3e29a74f	0.1656773

bottle_neck.bias f4 [8]
0	0xbc9ae1e3	-0.01890654
1	0xbcbe2002	-0.023208622
2	0xba7b1fd1	-0.0009579631
3	0x3ab2f711	0.0013653954
4	0x3c1a4150	0.009414986
5	0xbb99f22b	-0.004698058
6	0xbc8bb5b9	-0.017054426
7	0xbc78be19	-0.015182042
